…
87204]}","([[0.0068793201508015045, 0.0005537700152282403]], {'loss': [0.0068793201508015045], 'mse': [0.08407167843532301], 'rmse': [0.00723893879273868], 'mae': [0.05101984283648246], 'smape': [0.15804250221145638]}, {'loss': [0.0069203185084916186], 'mse': [0.08438672146494071], 'rmse': [0.007265691860802826], 'mae': [0.05068779834507664], 'smape': [0.15680490576787204]}, [4.078884840011597], 4.078884840011597, [11.217784404754639, 9.87777829170227], 21.09556269645691, MOMENTPipeline(
  (normalizer): RevIN()
  (tokenizer): Patching()
  (patch_embedding): PatchEmbedding(
    (value_embedding): Linear(in_features=8, out_features=512, bias=False)
    (position_embedding): PositionalEmbedding()
    (dropout): Dropout(p=0.1, inplace=False)
  )
  (encoder): T5Stack(
    (embed_tokens): Embedding(32128, 512)
    (block): ModuleList(
      (0): T5Block(
        (layer): ModuleList(
          (0): T5LayerSelfAttention(
            (SelfAttention): T5Attention(
              (q): Linear(in_features=512, out_features=384, bias=False)
              (k): Linear(in_features=512, out_features=384, bias=False)
              (v): Linear(in_features=512, out_features=384, bias=False)
              (o): Linear(in_features=384, out_features=512, bias=False)
              (relative_attention_bias): Embedding(32, 6)
            )
            (layer_norm): T5LayerNorm()
            (dropout): Dropout(p=0.1, inplace=False)
          )
          (1): T5LayerFF(
            (DenseReluDense): T5DenseGatedActDense(
              (wi_0): Linear(in_features=512, out_features=1024, bias=False)
              (wi_1): Linear(in_features=512, out_features=1024, bias=False)
              (wo): Linear(in_features=1024, out_features=512, bias=False)
              (dropout): Dropout(p=0.1, inplace=False)
              (act): NewGELUActivation()
            )
            (layer_norm): T5LayerNorm()
            (dropout): Dropout(p=0.1, inplace=False)
          )
        )
      )
      (1-7): 7 x T5Block(
        (layer): ModuleList(
          (0): T5LayerSelfAttention(
            (SelfAttention): T5Attention(
              (q): Linear(in_features=512, out_features=384, bias=False)
              (k): Linear(in_features=512, out_features=384, bias=False)
              (v): Linear(in_features=512, out_features=384, bias=False)
              (o): Linear(in_features=384, out_features=512, bias=False)
            )
            (layer_norm): T5LayerNorm()
            (dropout): Dropout(p=0.1, inplace=False)
          )
          (1): T5LayerFF(
            (DenseReluDense): T5DenseGatedActDense(
              (wi_0): Linear(in_features=512, out_features=1024, bias=False)
              (wi_1): Linear(in_features=512, out_features=1024, bias=False)
              (wo): Linear(in_features=1024, out_features=512, bias=False)
              (dropout): Dropout(p=0.1, inplace=False)
              (act): NewGELUActivation()
            )
            (layer_norm): T5LayerNorm()
            (dropout): Dropout(p=0.1, inplace=False)
          )
        )
      )
    )
    (final_layer_norm): T5LayerNorm()
    (dropout): Dropout(p=0.1, inplace=False)
  )
  (head): PretrainHead(
    (dropout): Dropout(p=0.1, inplace=False)
    (linear): Linear(in_features=512, out_features=8, bias=True)
  )
), [12], [0])",0.0068793201508015045,0.0069203185084916186
small,1,0.15,0.25,2,3.841440200805664,0.006882526437038905,0.08419678528407437,0.0072463756075054125,0.05061478046931264,[0.15675024703174917],0.0005983221214721977,0.08506038322873,0.00738544364661415,0.05147696544285402,0.1588842707489162,[12],[0],"[0.006882526437038905, 0.00059832212147219
…
