…
0.04631079753383625], 'smape': [0.14381253969134347]}","([[… 'loss': [0.00599445361058315], 'mse': [0.07871884302136829], 'rmse': [0.006315507540696211], 'mae': [0.04592736510267435], 'smape': [0.14290360642404715]}, {'loss': [0.005442950539872982], 'mse': [0.07483283333091906], 'rmse': [0.005737562061117203], 'mae': [0.04631079753383625], 'smape': [0.14381253969134347]}, [76.36498284339905], 76.36498284339905, [11.669955253601074, 10.522951602935791], 22.192906856536865, MOMENTPipeline(
  (normalizer): RevIN()
  (tokenizer): Patching()
  (patch_embedding): PatchEmbedding(
    (value_embedding): Linear(in_features=8, out_features=768, bias=False)
    (position_embedding): PositionalEmbedding()
    (dropout): Dropout(p=0.1, inplace=False)
  )
  (encoder): T5Stack(
    (embed_tokens): Embedding(32128, 768)
    (block): ModuleList(
      (0): T5Block(
        (layer): ModuleList(
          (0): T5LayerSelfAttention(
            (SelfAttention): T5Attention(
              (q): Linear(in_features=768, out_features=768, bias=False)
              (k): Linear(in_features=768, out_features=768, bias=False)
              (v): Linear(in_features=768, out_features=768, bias=False)
              (o): Linear(in_features=768, out_features=768, bias=False)
              (relative_attention_bias): Embedding(32, 12)
            )
            (layer_norm): T5LayerNorm()
            (dropout): Dropout(p=0.1, inplace=False)
          )
          (1): T5LayerFF(
            (DenseReluDense): T5DenseGatedActDense(
              (wi_0): Linear(in_features=768, out_features=2048, bias=False)
              (wi_1): Linear(in_features=768, out_features=2048, bias=False)
              (wo): Linear(in_features=2048, out_features=768, bias=False)
              (dropout): Dropout(p=0.1, inplace=False)
              (act): NewGELUActivation()
            )
            (layer_norm): T5LayerNorm()
            (dropout): Dropout(p=0.1, inplace=False)
          )
        )
      )
      (1-11): 11 x T5Block(
        (layer): ModuleList(
          (0): T5LayerSelfAttention(
            (SelfAttention): T5Attention(
              (q): Linear(in_features=768, out_features=768, bias=False)
              (k): Linear(in_features=768, out_features=768, bias=False)
              (v): Linear(in_features=768, out_features=768, bias=False)
              (o): Linear(in_features=768, out_features=768, bias=False)
            )
            (layer_norm): T5LayerNorm()
            (dropout): Dropout(p=0.1, inplace=False)
          )
          (1): T5LayerFF(
            (DenseReluDense): T5DenseGatedActDense(
              (wi_0): Linear(in_features=768, out_features=2048, bias=False)
              (wi_1): Linear(in_features=768, out_features=2048, bias=False)
              (wo): Linear(in_features=2048, out_features=768, bias=False)
              (dropout): Dropout(p=0.1, inplace=False)
              (act): NewGELUActivation()
            )
            (layer_norm): T5LayerNorm()
            (dropout): Dropout(p=0.1, inplace=False)
          )
        )
      )
    )
    (final_layer_norm): T5LayerNorm()
    (dropout): Dropout(p=0.1, inplace=False)
  )
  (head): PretrainHead(
    (dropout): Dropout(p=0.1, inplace=False)
    (linear): Linear(in_features=768, out_features=8, bias=True)
  )
), [12], [13], Empty DataFrame
Columns: [window, error]
Index: [])",0.00599445361058315,0.005442950539872982
small,20,0.15,0.25,5,76.24288630485535,0.00600709212358197,0.0787675413254084,0.006328877222788668,0.04584711756218564,[0.14254601038864942],0.0004229315880885614,0.07483283333091906,0.005737562061117203,0.04631079753383625,0.14381253969134347
…
