…
183962]}","([[0.007227050729852635, 0.0005675641664960754]], {'loss': [0.007227050729852635], 'mse': [0.08626923178686786], 'rmse': [0.007605506346053979], 'mae': [0.05174643572512244], 'smape': [0.15838128752059752]}, {'loss': [0.006828677574958419], 'mse': [0.08396467467450204], 'rmse': [0.007191776358081551], 'mae': [0.05049829678379061], 'smape': [0.15654878080183962]}, [4.026488304138184], 4.026488304138184, [11.334848880767822, 9.937214374542236], 21.27206325531006, MOMENTPipeline(
  (normalizer): RevIN()
  (tokenizer): Patching()
  (patch_embedding): PatchEmbedding(
    (value_embedding): Linear(in_features=8, out_features=512, bias=False)
    (position_embedding): PositionalEmbedding()
    (dropout): Dropout(p=0.1, inplace=False)
  )
  (encoder): T5Stack(
    (embed_tokens): Embedding(32128, 512)
    (block): ModuleList(
      (0): T5Block(
        (layer): ModuleList(
          (0): T5LayerSelfAttention(
            (SelfAttention): T5Attention(
              (q): Linear(in_features=512, out_features=384, bias=False)
              (k): Linear(in_features=512, out_features=384, bias=False)
              (v): Linear(in_features=512, out_features=384, bias=False)
              (o): Linear(in_features=384, out_features=512, bias=False)
              (relative_attention_bias): Embedding(32, 6)
            )
            (layer_norm): T5LayerNorm()
            (dropout): Dropout(p=0.1, inplace=False)
          )
          (1): T5LayerFF(
            (DenseReluDense): T5DenseGatedActDense(
              (wi_0): Linear(in_features=512, out_features=1024, bias=False)
              (wi_1): Linear(in_features=512, out_features=1024, bias=False)
              (wo): Linear(in_features=1024, out_features=512, bias=False)
              (dropout): Dropout(p=0.1, inplace=False)
              (act): NewGELUActivation()
            )
            (layer_norm): T5LayerNorm()
            (dropout): Dropout(p=0.1, inplace=False)
          )
        )
      )
      (1-7): 7 x T5Block(
        (layer): ModuleList(
          (0): T5LayerSelfAttention(
            (SelfAttention): T5Attention(
              (q): Linear(in_features=512, out_features=384, bias=False)
              (k): Linear(in_features=512, out_features=384, bias=False)
              (v): Linear(in_features=512, out_features=384, bias=False)
              (o): Linear(in_features=384, out_features=512, bias=False)
            )
            (layer_norm): T5LayerNorm()
            (dropout): Dropout(p=0.1, inplace=False)
          )
          (1): T5LayerFF(
            (DenseReluDense): T5DenseGatedActDense(
              (wi_0): Linear(in_features=512, out_features=1024, bias=False)
              (wi_1): Linear(in_features=512, out_features=1024, bias=False)
              (wo): Linear(in_features=1024, out_features=512, bias=False)
              (dropout): Dropout(p=0.1, inplace=False)
              (act): NewGELUActivation()
            )
            (layer_norm): T5LayerNorm()
            (dropout): Dropout(p=0.1, inplace=False)
          )
        )
      )
    )
    (final_layer_norm): T5LayerNorm()
    (dropout): Dropout(p=0.1, inplace=False)
  )
  (head): PretrainHead(
    (dropout): Dropout(p=0.1, inplace=False)
    (linear): Linear(in_features=512, out_features=8, bias=True)
  )
), [12], [0])",0.007227050729852635,0.006828677574958419
small,1,0.15,0.25,2,3.8310976028442383,0.007239525698423677,0.08644205519804224,0.007616925018071894,0.05182323329273826,[0.15986735063434565],0.0005869899811971534,0.08358820158982752,0.007119542417953471,0.049954285437225805,0.15570433089181593,[12],[0],"[0.007239525698423677, 0.0005869899811
…
