…
4953814], 'loss': [0.019371321502452094]}","([[0.4467295564012602]], {'mse': 0.05392189427997178, 'rmse': 0.0030376993069873245, 'mae': 0.029405404822160888, 'smape': 0.20103782840970313, 'loss': 0.0028958211720843488}, {'mse': [0.13703620004699413], 'rmse': [0.020279555368567813], 'mae': [0.08264373440129408], 'smape': [0.690777564953814], 'loss': [0.019371321502452094]}, [1.831132173538208], 1.831132173538208, [6.1016364097595215, 4.598879098892212], 10.700515508651733, MOMENTPipeline(
  (normalizer): RevIN()
  (tokenizer): Patching()
  (patch_embedding): PatchEmbedding(
    (value_embedding): Linear(in_features=8, out_features=512, bias=False)
    (position_embedding): PositionalEmbedding()
    (dropout): Dropout(p=0.1, inplace=False)
  )
  (encoder): T5Stack(
    (embed_tokens): Embedding(32128, 512)
    (block): ModuleList(
      (0): T5Block(
        (layer): ModuleList(
          (0): T5LayerSelfAttention(
            (SelfAttention): T5Attention(
              (q): Linear(in_features=512, out_features=384, bias=False)
              (k): Linear(in_features=512, out_features=384, bias=False)
              (v): Linear(in_features=512, out_features=384, bias=False)
              (o): Linear(in_features=384, out_features=512, bias=False)
              (relative_attention_bias): Embedding(32, 6)
            )
            (layer_norm): T5LayerNorm()
            (dropout): Dropout(p=0.1, inplace=False)
          )
          (1): T5LayerFF(
            (DenseReluDense): T5DenseGatedActDense(
              (wi_0): Linear(in_features=512, out_features=1024, bias=False)
              (wi_1): Linear(in_features=512, out_features=1024, bias=False)
              (wo): Linear(in_features=1024, out_features=512, bias=False)
              (dropout): Dropout(p=0.1, inplace=False)
              (act): NewGELUActivation()
            )
            (layer_norm): T5LayerNorm()
            (dropout): Dropout(p=0.1, inplace=False)
          )
        )
      )
      (1-7): 7 x T5Block(
        (layer): ModuleList(
          (0): T5LayerSelfAttention(
            (SelfAttention): T5Attention(
              (q): Linear(in_features=512, out_features=384, bias=False)
              (k): Linear(in_features=512, out_features=384, bias=False)
              (v): Linear(in_features=512, out_features=384, bias=False)
              (o): Linear(in_features=384, out_features=512, bias=False)
            )
            (layer_norm): T5LayerNorm()
            (dropout): Dropout(p=0.1, inplace=False)
          )
          (1): T5LayerFF(
            (DenseReluDense): T5DenseGatedActDense(
              (wi_0): Linear(in_features=512, out_features=1024, bias=False)
              (wi_1): Linear(in_features=512, out_features=1024, bias=False)
              (wo): Linear(in_features=1024, out_features=512, bias=False)
              (dropout): Dropout(p=0.1, inplace=False)
              (act): NewGELUActivation()
            )
            (layer_norm): T5LayerNorm()
            (dropout): Dropout(p=0.1, inplace=False)
          )
        )
      )
    )
    (final_layer_norm): T5LayerNorm()
    (dropout): Dropout(p=0.1, inplace=False)
  )
  (head): PretrainHead(
    (dropout): Dropout(p=0.1, inplace=False)
    (linear): Linear(in_features=512, out_features=8, bias=True)
  )
), [12], [0], Empty DataFrame
Columns: [window, error]
Index: [])"
small,1,0.25,0.25,5,8.553961515426636,0.12287420874927193,0.049242386071498,0.002572662696228325,0.026816579896079093,0.18457846124437327,0.2873889707028866,0.27103639147562963,0.07522954632989184,0.17642110316228354,1.0113250207128213,"[8, 10, 12, 16, 17]",0.002383789519727644,0.0752
…
